…
  WEIGHT_DECAY_NORM: 0.0
TEST:
  AUG:
    ENABLED: False
    FLIP: True
    MAX_SIZE: 4000
    MIN_SIZES: (400, 500, 600, 700, 800, 900, 1000, 1100, 1200)
  DETECTIONS_PER_IMAGE: 100
  EVAL_PERIOD: 20000
  EXPECTED_RESULTS: []
  KEYPOINT_OKS_SIGMAS: []
  PRECISE_BN:
    ENABLED: False
    NUM_ITER: 200
VERSION: 2
VIS_PERIOD: 0
[04/12 20:56:38] detectron2.utils.env INFO: Using a generated random seed 38948445
[04/12 20:56:40] detectron2.engine.defaults INFO: Model:
OneStageRCNN(
  (backbone): BiFPN(
    (bottom_up): BackboneWithTopLevels(
      (backbone): ResNet(
        (stem): BasicStem(
          (conv1): Conv2d(
            3, 64, kernel_size=(7, 7), stride=(2, 2), padding=(3, 3), bias=False
            (norm): FrozenBatchNorm2d(num_features=64, eps=1e-05)
          )
        )
        (res2): Sequential(
          (0): BottleneckBlock(
            (shortcut): Conv2d(
              64, 256, kernel_size=(1, 1), stride=(1, 1), bias=False
              (norm): FrozenBatchNorm2d(num_features=256, eps=1e-05)
            )
            (conv1): Conv2d(
              64, 64, kernel_size=(1, 1), stride=(1, 1), bias=False
              (norm): FrozenBatchNorm2d(num_features=64, eps=1e-05)
            )
            (conv2): Conv2d(
              64, 64, kernel_size=(3, 3), stride=(1, 1), padding=(1, 1), bias=False
              (norm): FrozenBatchNorm2d(num_features=64, eps=1e-05)
            )
            (conv3): Conv2d(
              64, 256, kernel_size=(1, 1), stride=(1, 1), bias=False
              (norm): FrozenBatchNorm2d(num_features=256, eps=1e-05)
            )
          )
          (1): BottleneckBlock(
            (conv1): Conv2d(
              256, 64, kernel_size=(1, 1), stride=(1, 1), bias=False
              (norm): FrozenBatchNorm2d(num_features=64, eps=1e-05)
            )
            (conv2): Conv2d(
              64, 64, kernel_size=(3, 3), stride=(1, 1), padding=(1, 1), bias=False
              (norm): FrozenBatchNorm2d(num_features=64, eps=1e-05)
            )
            (conv3): Conv2d(
              64, 256, kernel_size=(1, 1), stride=(1, 1), bias=False
              (norm): FrozenBatchNorm2d(num_features=256, eps=1e-05)
            )
          )
          (2): BottleneckBlock(
            (conv1): Conv2d(
              256, 64, kernel_size=(1, 1), stride=(1, 1), bias=False
              (norm): FrozenBatchNorm2d(num_features=64, eps=1e-05)
            )
            (conv2): Conv2d(
              64, 64, kernel_size=(3, 3), stride=(1, 1), padding=(1, 1), bias=False
              (norm): FrozenBatchNorm2d(num_features=64, eps=1e-05)
            )
            (conv3): Conv2d(
              64, 256, kernel_size=(1, 1), stride=(1, 1), bias=False
              (norm): FrozenBatchNorm2d(num_features=256, eps=1e-05)
            )
          )
        )
        (res3): Sequential(
          (0): BottleneckBlock(
            (shortcut): Conv2d(
              256, 512, kernel_size=(1, 1), stride=(2, 2), bias=False
              (norm): FrozenBatchNorm2d(num_features=512, eps=1e-05)
            )
            (conv1): Conv2d(
              256, 128, kernel_size=(1, 1), stride=(2, 2), bias=False
              (norm): FrozenBatchNorm2d(num_features=128, eps=1e-05)
            )
            (conv2): Conv2d(
              128, 128, kernel_size=(3, 3), stride=(1, 1), padding=(1, 1), bias=False
              (norm): FrozenBatchNorm2d(num_features=128, eps=1e-05)
            )
            (conv3): Conv2d(
              128, 512, kernel_size=(1, 1), stride=(1, 1), bias=False
              (norm): FrozenBatchNorm2d(num_features=512, eps=1e-05)
            )
          )
          (1): BottleneckBlock(
            (conv1): Conv2d(
              512, 128, kernel_size=(1, 1), stride=(1, 1), bias=False
              (norm): FrozenBatchNorm2d(num_features=128, eps=1e-05)
            )
            (conv2): Conv2d(
              128, 128, kernel_size=(3, 3), stride=(1, 1), padding=(1, 1), bias=False
              (norm): FrozenBatchNorm2d(num_features=128, eps=1e-05)
            )
            (conv3): Conv2d(
              128, 512, kernel_size=(1, 1), stride=(1, 1), bias=False
              (norm): FrozenBatchNorm2d(num_features=512, eps=1e-05)
            )
          )
          (2): BottleneckBlock(
            (conv1): Conv2d(
              512, 128, kernel_size=(1, 1), stride=(1, 1), bias=False
              (norm): FrozenBatchNorm2d(num_features=128, eps=1e-05)
            )
            (conv2): Conv2d(
              128, 128, kernel_size=(3, 3), stride=(1, 1), padding=(1, 1), bias=False
              (norm): FrozenBatchNorm2d(num_features=128, eps=1e-05)
            )
            (conv3): Conv2d(
              128, 512, kernel_size=(1, 1), stride=(1, 1), bias=False
              (norm): FrozenBatchNorm2d(num_features=512, eps=1e-05)
            )
          )
          (3): BottleneckBlock(
            (conv1): Conv2d(
              512, 128, kernel_size=(1, 1), stride=(1, 1), bias=False
              (norm): FrozenBatchNorm2d(num_features=128, eps=1e-05)
            )
            (conv2): Conv2d(
              128, 128, kernel_size=(3, 3), stride=(1, 1), padding=(1, 1), bias=False
              (norm): FrozenBatchNorm2d(num_features=128, eps=1e-05)
            )
            (conv3): Conv2d(
              128, 512, kernel_size=(1, 1), stride=(1, 1), bias=False
              (norm): FrozenBatchNorm2d(num_features=512, eps=1e-05)
            )
          )
        )
        (res4): Sequential(
          (0): BottleneckBlock(
            (shortcut): Conv2d(
              512, 1024, kernel_size=(1, 1), stride=(2, 2), bias=False
              (norm): FrozenBatchNorm2d(num_features=1024, eps=1e-05)
            )
            (conv1): Conv2d(
              512, 256, kernel_size=(1, 1), stride=(2, 2), bias=False
              (norm): FrozenBatchNorm2d(num_features=256, eps=1e-05)
            )
            (conv2): Conv2d(
              256, 256, kernel_size=(3, 3), stride=(1, 1), padding=(1, 1), bias=False
              (norm): FrozenBatchNorm2d(num_features=256, eps=1e-05)
            )
            (conv3): Conv2d(
              256, 1024, kernel_size=(1, 1), stride=(1, 1), bias=False
              (norm): FrozenBatchNorm2d(num_features=1024, eps=1e-05)
            )
          )
          (1): BottleneckBlock(
            (conv1): Conv2d(
              1024, 256, kernel_size=(1, 1), stride=(1, 1), bias=False
              (norm): FrozenBatchNorm2d(num_features=256, eps=1e-05)
            )
            (conv2): Conv2d(
              256, 256, kernel_size=(3, 3), stride=(1, 1), padding=(1, 1), bias=False
              (norm): FrozenBatchNorm2d(num_features=256, eps=1e-05)
            )
            (conv3): Conv2d(
              256, 1024, kernel_size=(1, 1), stride=(1, 1), bias=False
              (norm): FrozenBatchNorm2d(num_features=1024, eps=1e-05)
            )
          )
          (2): BottleneckBlock(
            (conv1): Conv2d(
              1024, 256, kernel_size=(1, 1), stride=(1, 1), bias=False
              (norm): FrozenBatchNorm2d(num_features=256, eps=1e-05)
            )
            (conv2): Conv2d(
              256, 256, kernel_size=(3, 3), stride=(1, 1), padding=(1, 1), bias=False
              (norm): FrozenBatchNorm2d(num_features=256, eps=1e-05)
            )
            (conv3): Conv2d(
              256, 1024, kernel_size=(1, 1), stride=(1, 1), bias=False
              (norm): FrozenBatchNorm2d(num_features=1024, eps=1e-05)
            )
          )
          (3): BottleneckBlock(
            (conv1): Conv2d(
              1024, 256, kernel_size=(1, 1), stride=(1, 1), bias=False
              (norm): FrozenBatchNorm2d(num_features=256, eps=1e-05)
            )
            (conv2): Conv2d(
              256, 256, kernel_size=(3, 3), stride=(1, 1), padding=(1, 1), bias=False
              (norm): FrozenBatchNorm2d(num_features=256, eps=1e-05)
            )
            (conv3): Conv2d(
              256, 1024, kernel_size=(1, 1), stride=(1, 1), bias=False
              (norm): FrozenBatchNorm2d(num_features=1024, eps=1e-05)
            )
          )
          (4): BottleneckBlock(
            (conv1): Conv2d(
              1024, 256, kernel_size=(1, 1), stride=(1, 1), bias=False
              (norm): FrozenBatchNorm2d(num_features=256, eps=1e-05)
            )
            (conv2): Conv2d(
              256, 256, kernel_size=(3, 3), stride=(1, 1), padding=(1, 1), bias=False
              (norm): FrozenBatchNorm2d(num_features=256, eps=1e-05)
            )
            (conv3): Conv2d(
              256, 1024, kernel_size=(1, 1), stride=(1, 1), bias=False
              (norm): FrozenBatchNorm2d(num_features=1024, eps=1e-05)
            )
          )
          (5): BottleneckBlock(
            (conv1): Conv2d(
              1024, 256, kernel_size=(1, 1), stride=(1, 1), bias=False
              (norm): FrozenBatchNorm2d(num_features=256, eps=1e-05)
            )
            (conv2): Conv2d(
              256, 256, kernel_size=(3, 3), stride=(1, 1), padding=(1, 1), bias=False
              (norm): FrozenBatchNorm2d(num_features=256, eps=1e-05)
            )
            (conv3): Conv2d(
              256, 1024, kernel_size=(1, 1), stride=(1, 1), bias=False
              (norm): FrozenBatchNorm2d(num_features=1024, eps=1e-05)
            )
          )
        )
        (res5): Sequential(
          (0): BottleneckBlock(
            (shortcut): Conv2d(
              1024, 2048, kernel_size=(1, 1), stride=(2, 2), bias=False
              (norm): FrozenBatchNorm2d(num_features=2048, eps=1e-05)
            )
            (conv1): Conv2d(
              1024, 512, kernel_size=(1, 1), stride=(2, 2), bias=False
              (norm): FrozenBatchNorm2d(num_features=512, eps=1e-05)
            )
            (conv2): Conv2d(
              512, 512, kernel_size=(3, 3), stride=(1, 1), padding=(1, 1), bias=False
              (norm): FrozenBatchNorm2d(num_features=512, eps=1e-05)
            )
            (conv3): Conv2d(
              512, 2048, kernel_size=(1, 1), stride=(1, 1), bias=False
              (norm): FrozenBatchNorm2d(num_features=2048, eps=1e-05)
            )
          )
          (1): BottleneckBlock(
            (conv1): Conv2d(
              2048, 512, kernel_size=(1, 1), stride=(1, 1), bias=False
              (norm): FrozenBatchNorm2d(num_features=512, eps=1e-05)
            )
            (conv2): Conv2d(
              512, 512, kernel_size=(3, 3), stride=(1, 1), padding=(1, 1), bias=False
              (norm): FrozenBatchNorm2d(num_features=512, eps=1e-05)
            )
            (conv3): Conv2d(
              512, 2048, kernel_size=(1, 1), stride=(1, 1), bias=False
              (norm): FrozenBatchNorm2d(num_features=2048, eps=1e-05)
            )
          )
          (2): BottleneckBlock(
            (conv1): Conv2d(
              2048, 512, kernel_size=(1, 1), stride=(1, 1), bias=False
              (norm): FrozenBatchNorm2d(num_features=512, eps=1e-05)
            )
            (conv2): Conv2d(
              512, 512, kernel_size=(3, 3), stride=(1, 1), padding=(1, 1), bias=False
              (norm): FrozenBatchNorm2d(num_features=512, eps=1e-05)
            )
            (conv3): Conv2d(
              512, 2048, kernel_size=(1, 1), stride=(1, 1), bias=False
              (norm): FrozenBatchNorm2d(num_features=2048, eps=1e-05)
            )
          )
        )
      )
      (res6): FeatureMapResampler(
        (reduction): Conv2d(
          2048, 256, kernel_size=(1, 1), stride=(1, 1), bias=False
          (norm): NaiveSyncBatchNorm(256, eps=1e-05, momentum=0.1, affine=True, track_running_stats=True)
        )
      )
      (res7): FeatureMapResampler()
    )
    (repeated_bifpn): ModuleList(
      (0): SingleBiFPN(
        (outputs_f4_4_5): Conv2d(
          256, 256, kernel_size=(3, 3), stride=(1, 1), padding=(1, 1), bias=False
          (norm): NaiveSyncBatchNorm(256, eps=1e-05, momentum=0.1, affine=True, track_running_stats=True)
        )
        (lateral_3_f3): Conv2d(
          2048, 256, kernel_size=(1, 1), stride=(1, 1)
          (norm): NaiveSyncBatchNorm(256, eps=1e-05, momentum=0.1, affine=True, track_running_stats=True)
        )
        (outputs_f3_3_6): Conv2d(
          256, 256, kernel_size=(3, 3), stride=(1, 1), padding=(1, 1), bias=False
          (norm): NaiveSyncBatchNorm(256, eps=1e-05, momentum=0.1, affine=True, track_running_stats=True)
        )
        (lateral_2_f2): Conv2d(
          1024, 256, kernel_size=(1, 1), stride=(1, 1)
          (norm): NaiveSyncBatchNorm(256, eps=1e-05, momentum=0.1, affine=True, track_running_stats=True)
        )
        (outputs_f2_2_7): Conv2d(
          256, 256, kernel_size=(3, 3), stride=(1, 1), padding=(1, 1), bias=False
          (norm): NaiveSyncBatchNorm(256, eps=1e-05, momentum=0.1, affine=True, track_running_stats=True)
        )
        (lateral_1_f1): Conv2d(
          512, 256, kernel_size=(1, 1), stride=(1, 1)
          (norm): NaiveSyncBatchNorm(256, eps=1e-05, momentum=0.1, affine=True, track_running_stats=True)
        )
        (outputs_f1_1_8): Conv2d(
          256, 256, kernel_size=(3, 3), stride=(1, 1), padding=(1, 1), bias=False
          (norm): NaiveSyncBatchNorm(256, eps=1e-05, momentum=0.1, affine=True, track_running_stats=True)
        )
        (outputs_f0_0_9): Conv2d(
          256, 256, kernel_size=(3, 3), stride=(1, 1), padding=(1, 1), bias=False
          (norm): NaiveSyncBatchNorm(256, eps=1e-05, momentum=0.1, affine=True, track_running_stats=True)
        )
        (outputs_f1_1_9_10): Conv2d(
          256, 256, kernel_size=(3, 3), stride=(1, 1), padding=(1, 1), bias=False
          (norm): NaiveSyncBatchNorm(256, eps=1e-05, momentum=0.1, affine=True, track_running_stats=True)
        )
        (outputs_f2_2_8_11): Conv2d(
          256, 256, kernel_size=(3, 3), stride=(1, 1), padding=(1, 1), bias=False
          (norm): NaiveSyncBatchNorm(256, eps=1e-05, momentum=0.1, affine=True, track_running_stats=True)
        )
        (outputs_f3_3_7_12): Conv2d(
          256, 256, kernel_size=(3, 3), stride=(1, 1), padding=(1, 1), bias=False
          (norm): NaiveSyncBatchNorm(256, eps=1e-05, momentum=0.1, affine=True, track_running_stats=True)
        )
        (outputs_f4_4_6_13): Conv2d(
          256, 256, kernel_size=(3, 3), stride=(1, 1), padding=(1, 1), bias=False
          (norm): NaiveSyncBatchNorm(256, eps=1e-05, momentum=0.1, affine=True, track_running_stats=True)
        )
        (outputs_f5_5_14): Conv2d(
          256, 256, kernel_size=(3, 3), stride=(1, 1), padding=(1, 1), bias=False
          (norm): NaiveSyncBatchNorm(256, eps=1e-05, momentum=0.1, affine=True, track_running_stats=True)
        )
      )
      (1): SingleBiFPN(
        (outputs_f4_4_5): Conv2d(
          256, 256, kernel_size=(3, 3), stride=(1, 1), padding=(1, 1), bias=False
          (norm): NaiveSyncBatchNorm(256, eps=1e-05, momentum=0.1, affine=True, track_running_stats=True)
        )
        (outputs_f3_3_6): Conv2d(
          256, 256, kernel_size=(3, 3), stride=(1, 1), padding=(1, 1), bias=False
          (norm): NaiveSyncBatchNorm(256, eps=1e-05, momentum=0.1, affine=True, track_running_stats=True)
        )
        (outputs_f2_2_7): Conv2d(
          256, 256, kernel_size=(3, 3), stride=(1, 1), padding=(1, 1), bias=False
          (norm): NaiveSyncBatchNorm(256, eps=1e-05, momentum=0.1, affine=True, track_running_stats=True)
        )
        (outputs_f1_1_8): Conv2d(
          256, 256, kernel_size=(3, 3), stride=(1, 1), padding=(1, 1), bias=False
          (norm): NaiveSyncBatchNorm(256, eps=1e-05, momentum=0.1, affine=True, track_running_stats=True)
        )
        (outputs_f0_0_9): Conv2d(
          256, 256, kernel_size=(3, 3), stride=(1, 1), padding=(1, 1), bias=False
          (norm): NaiveSyncBatchNorm(256, eps=1e-05, momentum=0.1, affine=True, track_running_stats=True)
        )
        (outputs_f1_1_9_10): Conv2d(
          256, 256, kernel_size=(3, 3), stride=(1, 1), padding=(1, 1), bias=False
          (norm): NaiveSyncBatchNorm(256, eps=1e-05, momentum=0.1, affine=True, track_running_stats=True)
        )
        (outputs_f2_2_8_11): Conv2d(
          256, 256, kernel_size=(3, 3), stride=(1, 1), padding=(1, 1), bias=False
          (norm): NaiveSyncBatchNorm(256, eps=1e-05, momentum=0.1, affine=True, track_running_stats=True)
        )
        (outputs_f3_3_7_12): Conv2d(
          256, 256, kernel_size=(3, 3), stride=(1, 1), padding=(1, 1), bias=False
          (norm): NaiveSyncBatchNorm(256, eps=1e-05, momentum=0.1, affine=True, track_running_stats=True)
        )
        (outputs_f4_4_6_13): Conv2d(
          256, 256, kernel_size=(3, 3), stride=(1, 1), padding=(1, 1), bias=False
          (norm): NaiveSyncBatchNorm(256, eps=1e-05, momentum=0.1, affine=True, track_running_stats=True)
        )
        (outputs_f5_5_14): Conv2d(
          256, 256, kernel_size=(3, 3), stride=(1, 1), padding=(1, 1), bias=False
          (norm): NaiveSyncBatchNorm(256, eps=1e-05, momentum=0.1, affine=True, track_running_stats=True)
        )
      )
    )
  )
  (proposal_generator): BAText(
    (iou_loss): IOULoss()
    (fcos_head): FCOSHead(
      (cls_tower): Sequential(
        (0): Conv2d(256, 256, kernel_size=(3, 3), stride=(1, 1), padding=(1, 1))
        (1): GroupNorm(32, 256, eps=1e-05, affine=True)
        (2): ReLU()
        (3): Conv2d(256, 256, kernel_size=(3, 3), stride=(1, 1), padding=(1, 1))
        (4): GroupNorm(32, 256, eps=1e-05, affine=True)
        (5): ReLU()
        (6): Conv2d(256, 256, kernel_size=(3, 3), stride=(1, 1), padding=(1, 1))
        (7): GroupNorm(32, 256, eps=1e-05, affine=True)
        (8): ReLU()
        (9): Conv2d(256, 256, kernel_size=(3, 3), stride=(1, 1), padding=(1, 1))
        (10): GroupNorm(32, 256, eps=1e-05, affine=True)
        (11): ReLU()
      )
      (bbox_tower): Sequential(
        (0): Conv2d(256, 256, kernel_size=(3, 3), stride=(1, 1), padding=(1, 1))
        (1): GroupNorm(32, 256, eps=1e-05, affine=True)
        (2): ReLU()
        (3): Conv2d(256, 256, kernel_size=(3, 3), stride=(1, 1), padding=(1, 1))
        (4): GroupNorm(32, 256, eps=1e-05, affine=True)
        (5): ReLU()
        (6): Conv2d(256, 256, kernel_size=(3, 3), stride=(1, 1), padding=(1, 1))
        (7): GroupNorm(32, 256, eps=1e-05, affine=True)
        (8): ReLU()
        (9): Conv2d(256, 256, kernel_size=(3, 3), stride=(1, 1), padding=(1, 1))
        (10): GroupNorm(32, 256, eps=1e-05, affine=True)
        (11): ReLU()
      )
      (share_tower): Sequential()
      (cls_logits): Conv2d(256, 1, kernel_size=(3, 3), stride=(1, 1), padding=(1, 1))
      (bbox_pred): Conv2d(256, 4, kernel_size=(3, 3), stride=(1, 1), padding=(1, 1))
      (ctrness): Conv2d(256, 1, kernel_size=(3, 3), stride=(1, 1), padding=(1, 1))
    )
  )
  (roi_heads): TextHead(
    (pooler): TopPooler(
      (level_poolers): ModuleList(
        (0): BezierAlign(output_size=(8, 32), spatial_scale=0.25, sampling_ratio=1, aligned=True)
        (1): BezierAlign(output_size=(8, 32), spatial_scale=0.125, sampling_ratio=1, aligned=True)
        (2): BezierAlign(output_size=(8, 32), spatial_scale=0.0625, sampling_ratio=1, aligned=True)
      )
    )
    (tower): Sequential(
      (0): Sequential(
        (0): Conv2d(256, 256, kernel_size=(3, 3), stride=(1, 1), padding=(1, 1), bias=False)
        (1): BatchNorm2d(256, eps=1e-05, momentum=0.1, affine=True, track_running_stats=True)
        (2): ReLU(inplace=True)
      )
      (1): Sequential(
        (0): Conv2d(256, 256, kernel_size=(3, 3), stride=(1, 1), padding=(1, 1), bias=False)
        (1): BatchNorm2d(256, eps=1e-05, momentum=0.1, affine=True, track_running_stats=True)
        (2): ReLU(inplace=True)
      )
    )
    (mask_head): MaskHead(
      (mask_convs): Sequential(
        (0): Sequential(
          (0): Conv2d(258, 256, kernel_size=(3, 3), stride=(1, 1), padding=(1, 1), bias=False)
          (1): BatchNorm2d(256, eps=1e-05, momentum=0.1, affine=True, track_running_stats=True)
          (2): ReLU(inplace=True)
        )
        (1): Sequential(
          (0): Conv2d(256, 256, kernel_size=(3, 3), stride=(1, 1), padding=(1, 1), bias=False)
          (1): BatchNorm2d(256, eps=1e-05, momentum=0.1, affine=True, track_running_stats=True)
          (2): ReLU(inplace=True)
        )
        (2): Sequential(
          (0): Conv2d(256, 256, kernel_size=(3, 3), stride=(1, 1), padding=(1, 1), bias=False)
          (1): BatchNorm2d(256, eps=1e-05, momentum=0.1, affine=True, track_running_stats=True)
          (2): ReLU(inplace=True)
        )
        (3): Sequential(
          (0): Conv2d(256, 256, kernel_size=(3, 3), stride=(1, 1), padding=(1, 1), bias=False)
          (1): BatchNorm2d(256, eps=1e-05, momentum=0.1, affine=True, track_running_stats=True)
          (2): ReLU(inplace=True)
        )
      )
    )
    (recognizer): ATTPredictor(
      (CRNN): CRNN(
        (convs): Sequential(
          (0): Sequential(
            (0): Conv2d(256, 256, kernel_size=(3, 3), stride=(2, 1), padding=(1, 1), bias=False)
            (1): GroupNorm(32, 256, eps=1e-05, affine=True)
            (2): ReLU(inplace=True)
          )
          (1): Sequential(
            (0): Conv2d(256, 256, kernel_size=(3, 3), stride=(2, 1), padding=(1, 1), bias=False)
            (1): GroupNorm(32, 256, eps=1e-05, affine=True)
            (2): ReLU(inplace=True)
          )
        )
        (rnn): BidirectionalLSTM(
          (rnn): LSTM(256, 256, bidirectional=True)
          (embedding): Linear(in_features=512, out_features=256, bias=True)
        )
      )
      (criterion): NLLLoss()
      (attention): Attention(
        (embedding): Embedding(97, 256)
        (attn_combine): Linear(in_features=512, out_features=256, bias=True)
        (dropout): Dropout(p=0.1, inplace=False)
        (gru): GRU(256, 256)
        (out): Linear(in_features=256, out_features=97, bias=True)
        (vat): Linear(in_features=256, out_features=1, bias=True)
      )
    )
  )
  (top_module): Conv2d(256, 16, kernel_size=(3, 3), stride=(1, 1), padding=(1, 1))
)
[04/12 20:56:40] detectron2.data.dataset_mapper INFO: Augmentations used in training: [RandomCrop(crop_type='relative_range', crop_size=[0.1, 0.1]), ResizeShortestEdge(short_edge_length=(640, 672, 704, 736, 768, 800, 832, 864, 896), max_size=1600, sample_style='choice'), RandomFlip()]
[04/12 20:56:40] adet.data.dataset_mapper INFO: Rebuilding the augmentations. The previous augmentations will be overridden.
…
